models/emb_roberta_kimcnn.pth (torch_old, 176837 bytes, 9 tensors)

embed.weight f4 [30, 768]
0	0xbc0e0983	-0.00866926
1	0xbea47b54	-0.32125342
2	0xbfa51a24	-1.2898602
3	0x3e2717de	0.16317698
4	0x3e528aac	0.20560712
5	0xbf507d18	-0.8144088
6	0x3f82dbfc	1.0223384
7	0xbfdaa99f	-1.7083014
8	0x3f93dbea	1.1551487
9	0xbeb0c7a6	-0.3452732
10	0xbeaadbdb	-0.3337086
11	0xbef049f1	-0.46931413
12	0xbf93420b	-1.150453
13	0x3c8d0028	0.017211989
14	0xbf5be218	-0.85891867
15	0xbf23a899	-0.63929135
16	0xbfca27b5	-1.5793368
17	0xbe5caa43	-0.21549325
18	0x3ef0f241	0.47059825
19	0x3df9c205	0.121952094
20	0xbe2222b7	-0.15833555
21	0xbf9998a8	-1.1999712
22	0xbf0c545a	-0.5481621
23	0x3f7cd11c	0.98756576
24	0x3c057efe	0.008147953
25	0xbe1a0a64	-0.15043026
26	0x3e1bbf8d	0.1520979
27	0xc0030970	-2.047451
28	0x3eaccf40	0.3375187
29	0x3e056d56	0.1302999
30	0xbfdf7851	-1.7458593
31	0xbcae2744	-0.021258958
32	0x3fa65e9b	1.2997621
33	0x3ec89f1a	0.39183885
34	0x3f552c18	0.83270407
35	0x3ec5fb08	0.38668084
36	0x3e5fe2e3	0.21863894
37	0x3f5f266f	0.8716802
38	0x3e7fa705	0.24966057
39	0x3f8dac00	1.1068115
40	0x3e3f9126	0.18707713
41	0xbe9cdb27	-0.3063595
42	0x3fb00241	1.3750688
43	0xbeba4573	-0.3638111
44	0xbfe05231	-1.7525083
45	0x3f53ac68	0.82684946
46	0xbff866d6	-1.9406383
47	0xbf05ea04	-0.52310205
48	0x3fcc2334	1.5948243
49	0xbfbc8f6b	-1.4731268
50	0x3fc3fd01	1.5311586
51	0xbdeace70	-0.11465156
52	0xbfc8def8	-1.5693045
53	0x3f0ea303	0.55717486
54	0xbfcc10b5	-1.5942599
55	0xbcb8f65f	-0.022578416
56	0xbf985f36	-1.1904056
57	0x3de777c1	0.11302138
58	0xbfd49806	-1.6608894
59	0x40125f94	2.2870836
60	0x3f13ff49	0.5781141
61	0xbe9fb915	-0.31195894
62	0x3f1b4b64	0.6066191
63	0xbdb8d912	-0.09025778
64	0xbf639dac	-0.88912463
65	0x3f7c5e0c	0.98581004
66	0x3f0c65d0	0.54842854
67	0xbf3f4f93	-0.74730796
68	0xbfcdf27d	-1.6089627
69	0xbfdaa0d2	-1.7080328
70	0xbf554f83	-0.8332445
71	0xbf8dfd3e	-1.1092908
72	0x3f7e4e99	0.9933868
73	0xbfd26862	-1.6438105
74	0x3ec5a11c	0.3859948
75	0x3eb97f6e	0.36230034
76	0xbe1acda7	-0.15117513
77	0x3e6c616e	0.23084041
78	0x3f0c226e	0.54740036
79	0x3f41f329	0.7576166
80	0x3f30405c	0.68848205
81	0xbc8f8a57	-0.01752202
82	0x3ff98c8e	1.9496019
83	0x3f241721	0.6409779
84	0x3f9e560e	1.2370012
85	0xbf9c4799	-1.220935
86	0xbd60978f	-0.054832038
87	0xbf1cc2ea	-0.61234915
88	0x3e9d4ba6	0.30721778
89	0x3f948670	1.1603527
90	0xbe88a5b7	-0.2668893
91	0xbd2dec09	-0.04246143
92	0x3eb7ac37	0.35873577
93	0x3f0aaec2	0.5417291
94	0x3f89d95c	1.0769458
95	0x3f34ff50	0.70702076
96	0xbea00bfb	-0.3125914
97	0xbeaa0353	-0.3320566
98	0xbfdd4749	-1.728738
99	0x3f3b8b00	0.7325897
100	0x3f87bb6a	1.0604069
101	0xbf309f03	-0.6899263
102	0xbff9903a	-1.949714
103	0x3f8fddb6	1.1239536
104	0x3ededa83	0.43526086
105	0x3e861a1f	0.26191804
106	0x3ffc7e16	1.9725978
107	0x3fbc3a05	1.4705206
108	0x3e0eb71b	0.13937037
109	0x3e1dc710	0.15407968
110	0x3fd124ba	1.6339333
111	0xbfe62ca4	-1.7982373
112	0x3f57d293	0.84305686
113	0xbf5898a2	-0.846079
114	0xbf9b2391	-1.2120229
115	0xbed3636f	-0.412868
116	0x3f8fd285	1.123612
117	0x3f6306bc	0.8868215
118	0x3f90af5e	1.1303518
119	0x3f1bdb81	0.6088181
120	0x3f3cc524	0.7373831
121	0xbe18fe7f	-0.14940833
122	0xbf32f31d	-0.6990221
123	0xbf76a8df	-0.96351427
124	0xbf2b92fa	-0.67021143
125	0xbf862cf4	-1.0482469
126	0x3ec5f400	0.3866272
127	0x3e4b1536	0.1983231
128	0x3f83f3bd	1.0308758
129	0xbdda802d	-0.10668979
130	0x3f94c26b	1.1621832
131	0x3f7d5a86	0.9896625
132	0x4008c7fd	2.1372063
133	0xbf03c748	-0.51475954
134	0x3feb032b	1.8360342
135	0x3f0ab79c	0.54186416
136	0xbf602d94	-0.87569547
137	0xbf27c725	-0.65538245
138	0x3de5a91d	0.112138964
139	0x3fa4d2db	1.2876848
140	0x3f78dcae	0.9721173
141	0x3d8b8ce0	0.06813979
142	0x3f5cc85b	0.8624322
143	0xbf8a208d	-1.0791184
144	0x3edce3f5	0.43142667
145	0xbebb0358	-0.3652599
146	0x3f3fa9a4	0.74868226
147	0xbeb12a3d	-0.34602538
148	0x3fa3d520	1.2799416
149	0xbe01cdd5	-0.12676175
150	0xbf0bc056	-0.54590356
151	0x3f0b4a56	0.544103
152	0xbf115641	-0.5677224
153	0x3f0e6fbc	0.55639243
154	0xbe7e771a	-0.24850121
155	0x3f445069	0.76685196
156	0xbf135ec0	-0.5756645
157	0xbfb2cb0b	-1.3968214
158	0x3e0c1fd3	0.13684015
159	0xbf4533b6	-0.7703203
160	0xbd599a26	-0.053125523
161	0x3f688623	0.90829676
162	0xbf53d116	-0.82740915
163	0xbecd23d9	-0.40066412
164	0x3f4325ef	0.7622976
165	0x3ffd79ee	1.9802835
166	0x3e9fb605	0.31193557
167	0xc011cbfe	-2.2780757
168	0x3fac464f	1.3458956
169	0xbf82ae17	-1.0209378
170	0xbf08006a	-0.5312563
171	0xbf43d637	-0.7649874
172	0x3f89e71e	1.0773656
173	0x3ebab598	0.3646667
174	0x3d01ec78	0.031719655
175	0x3d687b70	0.056758344
176	0xc056124f	-3.3448675
177	0x3fc8ad07	1.5677804
178	0xbe2d6141	-0.1693163
179	0x3dfdf656	0.124005005
180	0xbfafde04	-1.3739629
181	0xbf17b86d	-0.59265786
182	0x3f505dcc	0.8139312
183	0xbe9961e5	-0.299575
184	0x3e3fdc6f	0.18736432
185	0xbf9c4052	-1.2207129
186	0xbf3f6534	-0.747638
187	0xbdd85438	-0.105629385
188	0xbe4a3a19	-0.19748725
189	0x400e6709	2.2250388
190	0xbfaa2c83	-1.3294834
191	0x3fdaed3f	1.7103652
192	0x3fb1b48e	1.3883226
193	0x3e5456a1	0.20736171
194	0xbe42bfc7	-0.1901847
195	0x3ea4941a	0.32144243
196	0xbeb81d3b	-0.359598
197	0x3fb719df	1.430477
198	0x3d4d8e50	0.050184548
199	0x3e82da43	0.25557145
200	0xbf122e50	-0.5710192
201	0x3e686e4a	0.22698322
202	0xbfdfcae4	-1.7483792
203	0x3f6853b9	0.9075275
204	0xbecb5070	-0.39709806
205	0xbf06877a	-0.5255047
206	0xbe207b3f	-0.15672015
207	0x3ecb0385	0.39651123
208	0xbfd3c5aa	-1.6544697
209	0x3f3dbbd0	0.74114704
210	0xbdc017fb	-0.09379574
211	0xbe9d9824	-0.30780137
212	0xbfca3122	-1.5796244
213	0x3eddea85	0.43342987
214	0x4016f0ec	2.3584547
215	0xc000fd31	-2.0154536
216	0x3eeb7894	0.4599043
217	0xc010c31d	-2.2619088
218	0xbf8848a3	-1.0647167
219	0x3faa12be	1.328697
220	0x3e2524cc	0.16127318
221	0xbfa44ee3	-1.2836574
222	0x3ee2f845	0.4433004
223	0xbe3ce074	-0.18444997
224	0xbf4c0c7a	-0.7970654
225	0xbec83192	-0.3910032
226	0x3f48a472	0.78375924
227	0x3efa362f	0.48869464
228	0x3f023dd2	0.5087558
229	0x3faaed22	1.3353617
230	0x3e4a8502	0.19777301
231	0xbeff22b7	-0.49831173
232	0xbf21336b	-0.6296908
233	0xbed8f985	-0.42377868
234	0xbf018acb	-0.50602406
235	0xbf7e1312	-0.9924785
236	0xbf8ed13f	-1.1157607
237	0x3fdc0b12	1.7190878
238	0xbd9248fb	-0.07142826
239	0xbf950d0e	-1.1644609
240	0xbf2363a6	-0.63823926
241	0x3f44e0b3	0.76905364
242	0xbfe5f6fe	-1.7966001
243	0x3c4af568	0.012387611
244	0xbfcbf45b	-1.5933946
245	0xbf822db7	-1.0170201
246	0x3f57a864	0.8424132
247	0x3fc9ea4a	1.5774624
248	0x3f5d5794	0.8646176
249	0x3eff0c2f	0.49813983
250	0x3c921fe9	0.017837482
251	0x3f5b4296	0.8564848
252	0x3f3c3206	0.7351383
253	0xbed3db9f	-0.41378495
254	0x3f013d95	0.5048459
255	0xbe997959	-0.29975393

convs1.0.weight f4 [3, 1, 2, 768]
0	0x3c17d45c	0.009266939
1	0x3de50aaf	0.11183678
2	0x3cc54634	0.024081327
3	0x3cd2bec9	0.02572574
4	0x3c9ab227	0.018883778
5	0xbd368840	-0.044563532
6	0xbbe3e953	-0.0069553046
7	0xbce5d119	-0.028053807
8	0x3c89954c	0.016794823
9	0xbe1e738f	-0.1547377
10	0xbd33f77c	-0.04393719
11	0x3c0471f8	0.008083813
12	0x3d65f0cb	0.05613784
13	0xbe017fa6	-0.1264635
14	0xbd084348	-0.03326729
15	0xbd5215fa	-0.05129049
16	0x3b7a15c8	0.0038159955
17	0xbcd9b011	-0.026573213
18	0x3e5091ad	0.20368071
19	0x3ada84a3	0.0016671609
20	0x3d8bd4c7	0.068276934
21	0x3d724b35	0.059153754
22	0x3e8507b4	0.2598244
23	0xbe12c58e	-0.14333174
24	0xbe10f7ab	-0.14156978
25	0x3d9dfb6c	0.077139705
26	0xbd86260c	-0.065502256
27	0xbd950c3a	-0.07277723
28	0x3d88a614	0.06672302
29	0x3d28ba21	0.04119313
30	0x3d4421be	0.04788374
31	0x3dbe431e	0.09290145
32	0xbbe45dad	-0.006969175
33	0xbd61e70c	-0.055151984
34	0x3db7ae96	0.089688465
35	0xbcad6662	-0.021166984
36	0xbc4746da	-0.012162888
37	0xbdc1ebf5	-0.09468833
38	0x3e042d2e	0.1290786
39	0x3e3c53eb	0.18391387
40	0xbd3bd940	-0.045861483
41	0xbd931f71	-0.07183731
42	0xba104b10	-0.0005504349
43	0xbcd1e6b5	-0.025622705
44	0x3d88cc79	0.06679625
45	0xbd526335	-0.051364142
46	0xbe0d02ee	-0.13770649
47	0x3b20233a	0.002443506
48	0xbd6f8ef0	-0.058485925
49	0x3c0e4c48	0.008685179
50	0xbd32c932	-0.043648906
51	0xbde24430	-0.11048162
52	0x3c4540c1	0.012039364
53	0x3de86341	0.11347056
54	0xbd3dd7ef	-0.04634851
55	0xbb8dc2c2	-0.0043261955
56	0xbdbfcb4a	-0.09364946
57	0xbea24a77	-0.31697437
58	0xb8dae084	-0.00010436869
59	0xbcac58a6	-0.021038365
60	0xbe0da31c	-0.13831753
61	0xbd5516f1	-0.05202383
62	0x3d98c7a3	0.07459953
63	0x3c9f0fa8	0.019416645
64	0x3d8173d0	0.063209176
65	0x3d765d1c	0.06014739
66	0xbce2d282	-0.027688269
67	0xbd6291d4	-0.055314854
68	0xbd69d1e8	-0.057084948
69	0x3ca995cc	0.020701312
70	0x3d4f9bec	0.050685808
71	0xbc9b7a75	-0.01897929
72	0x3b61730e	0.0034400853
73	0xbd3fd9fd	-0.04683875
74	0xbdcd25b8	-0.1001696
75	0xbc7bbc70	-0.015364751
76	0xbd008f4c	-0.03138666
77	0x3d849794	0.06474224
78	0xbea0bb49	-0.31392887
79	0x3d7bc15b	0.061463695
80	0xbe473b33	-0.19456176
81	0x3c804195	0.015656272
82	0xbd4dcc63	-0.050243746
83	0x3cf245a3	0.029574221
84	0x3bfa47b9	0.0076379445
85	0xbd86f19a	-0.065890506
86	0x3d381ee1	0.044951323
87	0x3bd5422c	0.0065081324
88	0x3c33d583	0.010976198
89	0x3d1dbd7b	0.03851078
90	0xbd5e1e3f	-0.054228064
91	0x3d1a80e7	0.037720587
92	0x3ba02247	0.0048868987
93	0xbd4fdf0b	-0.05074982
94	0xbe0689ba	-0.13138476
95	0x3e4d3276	0.2003878
96	0x3d3029f1	0.04300875
97	0x3c55d953	0.013052302
98	0xbdfac5ca	-0.122447565
99	0x3d421b33	0.04738922
100	0xbca9f2fd	-0.020745749
101	0xbc5df0a4	-0.013546143
102	0xbeb33720	-0.35002995
103	0x3d75e23e	0.060030214
104	0x3b884d8c	0.004159635
105	0x3da9ed03	0.082971595
106	0x3e4b4029	0.19848694
107	0x3c6f66b3	0.014611888
108	0xbc691863	-0.014227006
109	0x3e0ca133	0.13733368
110	0x3d9ad47a	0.07560058
111	0xbd37de27	-0.044889595
112	0x3cb063ac	0.021531902
113	0xbccfaa26	-0.025349688
114	0xbb997442	-0.0046830485
115	0xbd05fed0	-0.03271371
116	0xbc3633df	-0.0111207655
117	0xbe1e8ce6	-0.15483436
118	0xbbcb4959	-0.006203812
119	0xbd293ea3	-0.0413195
120	0x3d79b487	0.06096318
121	0xbd9f2284	-0.07770255
122	0xbba66b30	-0.0050786957
123	0x3d5a925f	0.053362247
124	0x3cbcb79d	0.023036772
125	0x3a902ecf	0.0011000278
126	0xbd93f546	-0.072245166
127	0x3b0a26bf	0.0021080223
128	0xbd92e5ad	-0.071727134
129	0x3d5f56f0	0.05452627
130	0x3dad0131	0.08447493
131	0xbd0b3a9b	-0.033991437
132	0xbd17cc92	-0.037060328
133	0x3d49cd44	0.049268022
134	0x3bc0897e	0.0058757653
135	0xbdf8321e	-0.12118934
136	0xbce77e8b	-0.028258583
137	0xbdb6ac3c	-0.0891957
138	0x3d9aab01	0.07552148
139	0xbc98d167	-0.018654538
140	0x3c79cf24	0.01524714
141	0xbbfd9761	-0.007738993
142	0x3e02307a	0.12713805
143	0xbd7592b9	-0.05995438
144	0x3db6b250	0.08920729
145	0xbd94ce30	-0.0726589
146	0x3aae3a1e	0.0013292467
147	0x3d64205b	0.05569492
148	0x3dde87ba	0.108657315
149	0x3de9042d	0.113777496
150	0x3da16b8f	0.07881843
151	0xbd07f68a	-0.033194102
152	0xbc0fcf24	-0.0087774135
153	0x3de0af66	0.109709546
154	0x3b385c2e	0.0028131115
155	0x3e2ede4e	0.1707699
156	0xbd188489	-0.03723577
157	0x3d9d60c3	0.076844715
158	0x3d496502	0.049168594
159	0xbd8eb3c4	-0.06967881
160	0x3d2be374	0.041964963
161	0xbc701792	-0.014654057
162	0xbe490bf4	-0.19633466
163	0xbd2e4cf1	-0.042553846
164	0xb8ddedf4	-0.000105824234
165	0xbdf9e2ab	-0.122014366
166	0xbd102efb	-0.035201054
167	0x3db26be4	0.08711985
168	0x3c270071	0.010192976
169	0xbc3c94c9	-0.0115100825
170	0xbe2c00e4	-0.16797215
171	0x3cc5fe2b	0.024169048
172	0x3d86b48e	0.06577407
173	0xbe92b6d7	-0.2865512
174	0x3da3975c	0.07987854
175	0xbe09542b	-0.13411014
176	0x3de9d757	0.11418026
177	0xbc0cfe26	-0.008605516
178	0x3c8961fb	0.016770354
179	0xbbba7271	-0.005689912
180	0x3d45561b	0.04817782
181	0xbc05a285	-0.008156423
182	0xbd8f2211	-0.069889195
183	0x3e662504	0.22475058
184	0xbca452de	-0.020059045
185	0xbccfd054	-0.025367893
186	0xbde9992d	-0.11406169
187	0xbc3524d1	-0.011056141
188	0x3e2da752	0.16958359
189	0x3c44bdaa	0.01200811
190	0x3dfde949	0.12398011
191	0x3d958301	0.07300378
192	0xbd52a59e	-0.051427476
193	0xbcbacd10	-0.02280286
194	0x3b6f6027	0.0036525817
195	0xbd7f0289	-0.062258277
196	0x3e866cb0	0.26254797
197	0x3c5014e1	0.01270029
198	0x3d1f88e3	0.038948905
199	0x39c75cf8	0.00038025505
200	0xbd22ae64	-0.039717093
201	0xbc95ca43	-0.018284922
202	0xbd8f790d	-0.070055105
203	0xbb7d7c20	-0.003867872
204	0x3db0b0c7	0.086274676
205	0x3c2d560d	0.010579598
206	0xbcb19aa6	-0.021680187
207	0x3cd4c91f	0.025974808
208	0x3dbfde10	0.09368527
209	0xbdd3bca1	-0.103387125
210	0x3e01fba1	0.12693645
211	0x3cd88f10	0.026435405
212	0x3dc3ca08	0.09560019
213	0xbe235c90	-0.15953279
214	0x3bfb2219	0.007663977
215	0x3db0e487	0.08637338
216	0xbd4a302e	-0.049362354
217	0x3d954ea6	0.072903916
218	0xbd25902c	-0.040420696
219	0x3d05746e	0.03258174
220	0xbd7e798f	-0.062127646
221	0x3deebeff	0.11657523
222	0xbd981919	-0.07426662
223	0x3d15f8c5	0.0366142
224	0xbd427740	-0.047477007
225	0xbc3d0b6c	-0.011538368
226	0xbcad3f3e	-0.02114832
227	0x3dd93270	0.10605323
228	0xbdded83c	-0.10881087
229	0x3d4ed60c	0.0504971
230	0xbce57472	-0.028009627
231	0xbc655bf2	-0.013998972
232	0x3d44b717	0.04802617
233	0x3b9064f3	0.0044065653
234	0x3ccfe9a4	0.025379963
235	0xbb9051ea	-0.004404296
236	0xbdd2e8ff	-0.10298347
237	0xbbaedb3e	-0.0053361943
238	0x3e405b19	0.18784751
239	0xbcd40d7d	-0.025885338
240	0x3c93f1ec	0.018059693
241	0xbd05bbf8	-0.032649964
242	0x3ded0473	0.11573114
243	0x3b0aa6ab	0.002115647
244	0x3d766296	0.060152613
245	0x3e51b56f	0.20479368
246	0xbd812b1d	-0.06307051
247	0x3d811a93	0.06303897
248	0x3afcb1ac	0.0019279025
249	0x3ca73430	0.020410627
250	0xbe08b3a5	-0.13349779
251	0xbc703af8	-0.014662497
252	0xbdb83910	-0.08995259
253	0xbc87f79e	-0.016597565
254	0x3db1487d	0.08656404
255	0xbe0754e4	-0.13215977

convs1.0.bias f4 [3]
0	0xbd03aa64	-0.03214492
1	0xbcee8033	-0.029113865
2	0x3c597039	0.013271385

convs1.1.weight f4 [3, 1, 3, 768]
0	0x3cc3d114	0.023903407
1	0xbe29e76d	-0.16592188
2	0x3ce87cc8	0.028379813
3	0xbd95ed33	-0.07320633
4	0x3d961421	0.07328058
5	0x3e2f7e6d	0.17138071
6	0xbe72387f	-0.23654364
7	0x3d96d0b5	0.073640265
8	0xbd2f149e	-0.04274427
9	0x3e075d72	0.1321924
10	0x3ded7ee7	0.1159647
11	0xbd98f952	-0.07469429
12	0x3d6eb868	0.058281332
13	0xbd44b88f	-0.04802757
14	0xbe0f15e6	-0.13973197
15	0x3da01860	0.07817149
16	0x3c3bc7fa	0.011461252
17	0x3dc233d4	0.09482542
18	0x3d2a3dc9	0.04156283
19	0xbd48996d	-0.048974443
20	0xbda28efc	-0.07937428
21	0x3e2e559e	0.17024848
22	0x3cc8d266	0.024514388
23	0xbdc36ba8	-0.09542018
24	0x3d9345b4	0.07191029
25	0x3e06127c	0.13092989
26	0xbd4d56ef	-0.050131734
27	0x3e4b5e8b	0.19860284
28	0x3dba2e39	0.090908475
29	0x3e5035ef	0.20333074
30	0xbd6ad989	-0.057336364
31	0xbd92ece7	-0.07174092
32	0xbdbaf8b5	-0.09129468
33	0xbe004987	-0.12528048
34	0xbe6834b1	-0.2267635
35	0xbdba638e	-0.0910102
36	0x3c24c60b	0.010056983
37	0x3c850e56	0.016242187
38	0x3dcf765e	0.101299986
39	0x3dc9310b	0.09823807
40	0x3d41fb7a	0.047358967
41	0x3d84b6e0	0.06480193
42	0x3e324037	0.17407309
43	0xbd726943	-0.059182417
44	0xbda65875	-0.081223406
45	0x3df18d82	0.117945686
46	0xbc4aac45	-0.012370174
47	0x3ddb8106	0.10717969
48	0x3d98ba49	0.07457406
49	0xbe2bf603	-0.16793065
50	0xbe162aa2	-0.146647
51	0xbd88842d	-0.066658355
52	0x3d55b916	0.052178465
53	0x3c8fe201	0.017563822
54	0xbe0f9e7c	-0.140253
55	0xbe0410e5	-0.1289707
56	0x3dfbf510	0.12302601
57	0x3df0fafe	0.11766623
58	0x3d1b819f	0.037965413
59	0xbd80f2c4	-0.06296304
60	0xbdd283d8	-0.102790534
61	0x3c7cff8b	0.015441786
62	0xbda61107	-0.081087165
63	0x3dbc95f3	0.09208288
64	0xbe2cc3d8	-0.16871583
65	0x3d5c4098	0.05377254
66	0xbd1a8bd3	-0.037731003
67	0x3d87d65a	0.06632681
68	0x3dbc3f8e	0.091918096
69	0x3e220d73	0.15825443
70	0xbe67c6b1	-0.22634389
71	0xbd59bc85	-0.0531583
72	0x3d12368d	0.035696555
73	0xbdf7661a	-0.12080021
74	0xbd8db629	-0.0691951
75	0xbba68673	-0.0050819456
76	0x3e305ef0	0.17223716
77	0x3d43a72e	0.047766857
78	0x3dd61d2a	0.10454781
79	0x3d3a0fc7	0.045425203
80	0x3e198bb9	0.14994706
81	0xbd16caf8	-0.03681466
82	0x3e30f3f3	0.17280559
83	0x3de4936b	0.1116093
84	0xbddf6d2b	-0.10909494
85	0xbcd98a7e	-0.026555296
86	0x3c355f79	0.011070126
87	0x3b9059f5	0.004405255
88	0x3dac1177	0.08401769
89	0x3b9af3ae	0.004728756
90	0x3df62c01	0.12020112
91	0xbcf1e991	-0.029530318
92	0x3df63e44	0.12023595
93	0x3e130818	0.14358556
94	0xbd366952	-0.044534035
95	0xbc9c8ef4	-0.019111134
96	0xbc2257fb	-0.0099086715
97	0xbcd3c934	-0.025852777
98	0xbc59fda2	-0.0133051
99	0xbc99bfb6	-0.018768173
100	0x3dc8dfff	0.09808349
101	0x3d1f8eb4	0.03895445
102	0x3dd74d68	0.10512811
103	0x3d4ec9c3	0.050485384
104	0x3d938e9b	0.07204934
105	0xbd0902d4	-0.033449963
106	0x3d9afb91	0.07567514
107	0x3c9b54da	0.018961359
108	0xbe4919fa	-0.19638816
109	0x3e1037c9	0.1408378
110	0x3e4da5e4	0.20082814
111	0xbd0e66b7	-0.034765925
112	0x3cfeb68a	0.0310929
113	0x3d458d76	0.04823061
114	0xbe06d71d	-0.13167997
115	0x3d06fc5c	0.032955512
116	0x3d46e6e4	0.04856004
117	0xbe90dce1	-0.28293517
118	0x3e28af3d	0.16473098
119	0xbd5176a7	-0.051138546
120	0x3bdcaade	0.006734236
121	0x3e4d8f8c	0.2007429
122	0xbe099e73	-0.1343935
123	0x3d0c98f4	0.034325555
124	0x3daaeff6	0.0834655
125	0x3e6e4a1a	0.23270455
126	0x3e0e9fc1	0.13928129
127	0xbb834f84	-0.0040072817
128	0x3d417c23	0.047237527
129	0xbe1dfac2	-0.15427688
130	0x3d3495c7	0.04408815
131	0x3d344abe	0.044016592
132	0x3e0a06ab	0.13479106
133	0xbb7c2d0b	-0.0038478996
134	0xbd56203d	-0.05227684
135	0x3e6dadc7	0.23210822
136	0x3de3c5da	0.111217216
137	0x3d83af7f	0.064299576
138	0xbe0dee8a	-0.13860527
139	0xbd736b1c	-0.05942832
140	0x3909ab32	0.00013129113
141	0xbc531ed3	-0.012885767
142	0xbe621672	-0.22078875
143	0xbd26f75c	-0.040763244
144	0x3e059b45	0.13047512
145	0x3dd5e388	0.10443789
146	0x3d6ab08a	0.057297267
147	0xbdd98a01	-0.10622025
148	0xbb5594d4	-0.003258993
149	0x3decbb1e	0.11559127
150	0xbcdfd9f6	-0.027325612
151	0x3e7c1d63	0.24620585
152	0xbd901433	-0.07035103
153	0x3b6c812f	0.0036087742
154	0x3ec3265b	0.381152
155	0xbd2c43b7	-0.042056765
156	0x3df038d8	0.11729592
157	0xbde5553b	-0.11197897
158	0xbe70e644	-0.2352534
159	0xbc91761a	-0.01775651
160	0xbe042ee7	-0.12908517
161	0x3c3c763b	0.011502798
162	0x3cb68a0b	0.02228262
163	0x3c9aa9f3	0.018879866
164	0xbe06d40e	-0.1316683
165	0xbc5b9979	-0.01340329
166	0xbd1ea852	-0.03873474
167	0xbdc20735	-0.09474031
168	0x3caa4a80	0.020787477
169	0xbdedd7ae	-0.11613403
170	0x3e0fe030	0.14050364
171	0xbd42016c	-0.047364637
172	0xbd484002	-0.048889168
173	0xbd2f35ea	-0.042776026
174	0xbcfff5d2	-0.031245146
175	0xbb9448e1	-0.0045252894
176	0x3b87397b	0.0041267253
177	0x3e33e629	0.17568268
178	0x3b5b2ef0	0.0033444725
179	0xbd89fdd1	-0.06737865
180	0x3d0f26fc	0.034949288
181	0xbd53fcc2	-0.05175472
182	0x3d85c2e9	0.06531317
183	0xbe43250b	-0.190571
184	0x3c18a769	0.009317257
185	0xbcc24132	-0.023712728
186	0x3d3b1737	0.045676436
187	0x3d8bd131	0.068270095
188	0x3e451e2a	0.19249788
189	0x3defc089	0.11706645
190	0xbb814bcd	-0.0039458037
191	0xbd671dfa	-0.056425072
192	0x3c061b98	0.00818529
193	0xbe0677a5	-0.13131578
194	0xbe11c881	-0.14236642
195	0x3dc9114b	0.098177515
196	0x3d75f37a	0.06004665
197	0x3d2c3489	0.04204229
198	0x3b09cd26	0.002102682
199	0x3ddd6f18	0.10812205
200	0xbdbd3cd7	-0.0924012
201	0xbe13605a	-0.14392224
202	0xbe57818d	-0.21045513
203	0x3dd161e9	0.10223753
204	0xbd21170e	-0.039328627
205	0x3ca96802	0.020679478
206	0x3d4094a8	0.04701677
207	0xbdc81f43	-0.09771588
208	0x3cbc6cdd	0.023001129
209	0x3c905d37	0.017622573
210	0xbd8c45f3	-0.06849279
211	0x3c41639b	0.011803533
212	0xbd704b47	-0.05866554
213	0x3e365a91	0.17807986
214	0x3d74bb51	0.05974895
215	0xbde4e992	-0.111773625
216	0x3e3dcb04	0.18534476
217	0xbc38d72a	-0.011281768
218	0xbdc3bd57	-0.09557598
219	0xbcd51a7b	-0.026013603
220	0x3d738a3a	0.059457995
221	0xbe14dc21	-0.14537098
222	0x3ddbbe49	0.107296534
223	0x3cf6f39e	0.030145463
224	0x3d117cc0	0.03551936
225	0xbd17ffb8	-0.037109107
226	0xbd9a9fcd	-0.07550011
227	0xbd172f57	-0.03691038
228	0x3da62ee6	0.08114414
229	0xbe58cdb0	-0.21172214
230	0xbd9ecb61	-0.07753635
231	0xbca4a998	-0.0201004
232	0x3dda315c	0.10653946
233	0xbdc1c51c	-0.09461424
234	0xbcb9f97e	-0.022701975
235	0xbe5086ab	-0.20363872
236	0x3dd0d881	0.10197545
237	0x3d0f2e50	0.034956276
238	0xbdc23c2e	-0.094841346
239	0x3d99caab	0.07509359
240	0xbd2fba04	-0.042902008
241	0x3cbbb12d	0.022911632
242	0xbc7c052c	-0.015382092
243	0x3da062e5	0.07831363
244	0x3e1d81b7	0.15381514
245	0xbc46e480	-0.01213944
246	0x3df21f0e	0.118223295
247	0x3d98dd44	0.07464078
248	0x3d5625dc	0.0522822
249	0xbd7129d4	-0.05887778
250	0x3cdb93fe	0.026803967
251	0x3b76af5a	0.0037641139
252	0x3b884d55	0.0041596093
253	0xbd1ca587	-0.038243797
254	0xbe0de8e8	-0.13858378
255	0xbdf23b0d	-0.11827669

convs1.1.bias f4 [3]
0	0xbbee80b6	-0.007278527
1	0xbcaa1b57	-0.02076499
2	0xbd46e7b2	-0.048560806

convs1.2.weight f4 [3, 1, 4, 768]
0	0xbb9dc770	-0.0048150346
1	0x3ddd10aa	0.10794194
2	0x3d55e080	0.052216053
3	0x3ba0b29a	0.0049041035
4	0x3d803365	0.06259803
5	0xbe41dabd	-0.18931098
6	0x3d46e105	0.04855444
7	0xbd6e1400	-0.058124542
8	0xbd8eafc7	-0.069671206
9	0xbd921790	-0.071334004
10	0xbdf38b08	-0.118917525
11	0xbd2a7834	-0.04161854
12	0xbd3d0fe0	-0.046157718
13	0xbddf9b44	-0.109182864
14	0xbdcf9dd6	-0.10137527
15	0xbde7bf44	-0.11315778
16	0xbd72cf42	-0.059279688
17	0x3c849413	0.016183889
18	0x3c240fb2	0.010013508
19	0x3bafd1eb	0.0053656003
20	0x3e40a25b	0.18811934
21	0xbd07f462	-0.033192046
22	0xbe0c779d	-0.13717504
23	0x3d857e3f	0.0651822
24	0x3a9f24a9	0.0012141663
25	0xbd26c7a6	-0.040717743
26	0xbe1ff858	-0.1562208
27	0xbea1a8b3	-0.3157402
28	0x3d8cb227	0.06869917
29	0xbca09e8e	-0.019606855
30	0xbc1e5bdf	-0.009665458
31	0x3d39ac50	0.045330346
32	0xbd67b899	-0.05657253
33	0xbe004330	-0.1252563
34	0x3d9e4e83	0.07729819
35	0xbc644116	-0.013931533
36	0xbdc76bf1	-0.09737385
37	0x3d84e8e3	0.06489732
38	0x3e5487c3	0.20754914
39	0xbac0b7b3	-0.0014703184
40	0xbe03a7f4	-0.12857038
41	0xbdbd42ed	-0.09241281
42	0x3db629fb	0.08894726
43	0xbd4bfced	-0.049801756
44	0x3e1b6288	0.15174305
45	0xbdb0dee4	-0.08636263
46	0x3cca849f	0.024721442
47	0xbdb25533	-0.08707657
48	0x3d96d74a	0.07365282
49	0x3c5854d8	0.013203822
50	0xbc160635	-0.009156753
51	0xbe6c68c4	-0.2308684
52	0x3dbd2b01	0.09236718
53	0x3e295659	0.16536845
54	0xbde628f1	-0.11238278
55	0xbdb30d2b	-0.08742746
56	0xbcf4ace8	-0.029867604
57	0xbe2b97ec	-0.16757172
58	0x3e174588	0.14772618
59	0xbd0e01dd	-0.034669746
60	0xbe088d5e	-0.13335177
61	0xbd8f89e2	-0.07008721
62	0x3d992085	0.07476906
63	0x3de429e3	0.11140802
64	0x3e045142	0.12921622
65	0x3db5a51e	0.08869384
66	0xbd0e04e4	-0.034672633
67	0xbe27c52a	-0.16383806
68	0xbda64449	-0.08118493
69	0xbda471b8	-0.08029503
70	0xbd8d7f73	-0.06909075
71	0xbc9ced2f	-0.019156067
72	0xbe50ed32	-0.20402983
73	0xbe26bd3d	-0.16283126
74	0xbd942d23	-0.07235172
75	0xbd8671d9	-0.065646835
76	0x3d713c8c	0.058895633
77	0xbdcf582f	-0.101242416
78	0xbd9d7614	-0.07688537
79	0x3c928c63	0.017889207
80	0xbe82eacc	-0.2556976
81	0xbd2e187a	-0.04250381
82	0xbd945b7a	-0.0724401
83	0xbda65855	-0.08122317
84	0xbe6b8c4b	-0.23002736
85	0xbcaf2310	-0.021379024
86	0x3d182963	0.037148844
87	0x3d000b63	0.03126086
88	0x3d817397	0.06320875
89	0xbd66e341	-0.05636907
90	0x3cc68df6	0.024237614
91	0x3db99348	0.09061295
92	0x3c35fff0	0.011108384
93	0x3cb1a5eb	0.021685561
94	0x3ce43721	0.027858319
95	0x3e10ceae	0.14141342
96	0xbe175019	-0.14776649
97	0x3d0d6539	0.03452036
98	0xbe8e0ec4	-0.2774564
99	0x3d9267e6	0.07148723
100	0xbde2baa0	-0.11070752
101	0xbc2da345	-0.0105980085
102	0xbdf42450	-0.119209886
103	0x3dd6aac2	0.10481788
104	0xbc8d22d1	-0.017228516
105	0x3c886b3f	0.016652701
106	0x3e75bc25	0.23997553
107	0x3d4a1b99	0.049342725
108	0x3cfd3dde	0.03091329
109	0x3c88b243	0.016686564
110	0x3d8868f2	0.06660642
111	0xbdbaa55d	-0.09113572
112	0x3beb5a8d	0.0071824254
113	0xb9f711c9	-0.00047124762
114	0x3d1b33ce	0.0378912
115	0xbd9da83a	-0.07698102
116	0xbe58370b	-0.21114747
117	0xbd025b59	-0.031825397
118	0xbc3d1d85	-0.011542683
119	0x3da3ecac	0.08004126
120	0x3dcce225	0.10004071
121	0xbe55d530	-0.20882106
122	0xbcc5d966	-0.024151515
123	0xbd9accc3	-0.075585864
124	0x3d41c303	0.04730512
125	0xbe05600d	-0.13024922
126	0xbd19e182	-0.037568577
127	0x3bd84616	0.006600152
128	0xbda3dd31	-0.08001173
129	0xbca11722	-0.01966435
130	0x3d91074a	0.070814684
131	0xbd42791b	-0.047478776
132	0xb66a60b0	-3.4924997e-06
133	0xbcc7464a	-0.024325509
134	0x3d6d0a57	0.05787119
135	0xbe3b3aa2	-0.18284085
136	0xbd04657e	-0.032323353
137	0x3cd4cfac	0.025977932
138	0xbcd77e85	-0.026305446
139	0x3dee0929	0.11622841
140	0x3d013010	0.031539977
141	0x3db0df59	0.0863635
142	0x3e39101a	0.18072549
143	0xbe17d16a	-0.14825979
144	0x3d5f0585	0.054448623
145	0x3da22afb	0.07918354
146	0xbd16b17b	-0.036790352
147	0x3e1b9601	0.1519394
148	0xbd83ea68	-0.06441194
149	0x3d73702f	0.05943316
150	0x3dac4cef	0.084131114
151	0xbe1782d6	-0.14796004
152	0xbc62a9f7	-0.013834468
153	0xbd5f98c5	-0.05458905
154	0xbe5b15d4	-0.21395046
155	0x3d5448ef	0.051827367
156	0x3e577bd9	0.21043338
157	0x3d9f3c8d	0.07775221
158	0x3e6da852	0.2320874
159	0xbd84389e	-0.06456111
160	0xbe0ccd78	-0.13750255
161	0x3d447903	0.04796697
162	0xbd7e0afb	-0.06202219
163	0xbc8bbf85	-0.017059097
164	0x3e192110	0.14954019
165	0xbd005ee1	-0.031340484
166	0x3d3517de	0.044212215
167	0xbdace8d0	-0.08442843
168	0xbd2be85f	-0.041969653
169	0x3d0ae086	0.03390553
170	0xbc35e09d	-0.011100915
171	0x3b1268ea	0.0022340366
172	0xbe05eaef	-0.13077901
173	0xbe7e633f	-0.24842547
174	0xbe2f2555	-0.17104085
175	0xbe18523d	-0.14875121
176	0x3da0e2f0	0.07855785
177	0x3cd7ce6f	0.026343552
178	0x3dadb244	0.08481267
179	0xbdfd0ed5	-0.123563446
180	0x3c260930	0.010134026
181	0x3d116103	0.03549291
182	0x3d810652	0.06300034
183	0x3e902f55	0.2816111
184	0x3d921a59	0.07133932
185	0xbc83490e	-0.016026046
186	0xbdd3d3f0	-0.10343158
187	0xbcb733d5	-0.022363583
188	0xbd93d491	-0.07218278
189	0x3d1c4740	0.038153887
190	0xbda3d2e7	-0.07999211
191	0x3cd23a8c	0.025662683
192	0x3d884381	0.066535
193	0x3e3ea328	0.18616927
194	0x3d5d608a	0.054047145
195	0x3cbbb226	0.022912096
196	0x3e0df49f	0.13862847
197	0xbd39b252	-0.045336075
198	0xbe0bee4d	-0.13665123
199	0xbd1369ee	-0.035989694
200	0xbe746002	-0.23864749
201	0xbd7017ec	-0.058616564
202	0x3d248ab2	0.040171333
203	0xbcebbb65	-0.02877588
204	0x3d511fce	0.051055722
205	0x3d6596c3	0.05605198
206	0xbcd3fd00	-0.025877476
207	0x3e451228	0.19245207
208	0x3d3a9a28	0.04555717
209	0xbdc02740	-0.09382486
210	0x3d3742a7	0.0447413
211	0xbd1cd831	-0.038292114
212	0x3e49d4ec	0.1971013
213	0xbd967588	-0.07346636
214	0xbd4c7ae8	-0.0499219
215	0x3d86a57d	0.06574533
216	0x3dfe6749	0.12422044
217	0xbd7f9f58	-0.06240782
218	0x3e06f440	0.13179111
219	0x3cea5754	0.028606094
220	0x3d0702ef	0.032961782
221	0x3ddd9a90	0.10820496
222	0x3e1d38d1	0.15353705
223	0x3d0def0e	0.03465181
224	0x3da1792c	0.0788444
225	0xbb835b3f	-0.00400868
226	0xbc8c8adb	-0.017156055
227	0x3deda7a2	0.11604239
228	0xbe55ab4a	-0.20866123
229	0x3dd0a7b2	0.10188235
230	0xbdaf5492	-0.085610524
231	0x3d912ffb	0.0708923
232	0xbde63b9d	-0.11241839
233	0x3da60324	0.08106068
234	0x3dee1137	0.11624377
235	0x3d821b30	0.06352842
236	0x3dde15db	0.10844012
237	0xbdbd2b30	-0.09236753
238	0x3e9e03bc	0.30862224
239	0xbd4a386f	-0.049370226
240	0xbe2643b1	-0.1623676
241	0xbe2758d4	-0.16342479
242	0xbca61e88	-0.02027823
243	0xbca92e7c	-0.020652048
244	0xbd8b0d64	-0.067896634
245	0x3de4322a	0.111423805
246	0xbe063c3d	-0.13108917
247	0x3daa0bbe	0.08303021
248	0x3d25f507	0.04051688
249	0x3ce1a4d6	0.02754442
250	0x3d213293	0.039354872
251	0xbd2cf34a	-0.042224206
252	0xbd973716	-0.07383554
253	0x3d9fe1d5	0.07806746
254	0x3d814fe7	0.06314068
255	0xbe06dc04	-0.13169867

convs1.2.bias f4 [3]
0	0x3c8af284	0.016961344
1	0xbd19ee8a	-0.037581004
2	0xbcf2a7da	-0.029621053

fc1.weight f4 [3, 9]
0	0x3ebe5231	0.37172082
1	0x3e22b32a	0.15888658
2	0xbe69dd87	-0.22838412
3	0xbf4f9b78	-0.810966
4	0x3ecc7c78	0.39938712
5	0xbe59e862	-0.21280053
6	0x3e09c350	0.13453412
7	0x3f07eb12	0.53093064
8	0xbf385b4c	-0.7201431
9	0x3e2af233	0.16693954
10	0xbe0d43b0	-0.13795352
11	0x3e398aac	0.18119305
12	0xbe0411f3	-0.12897472
13	0xbee6dd3e	-0.4509067
14	0xbf00e7fd	-0.50353986
15	0xbec9594f	-0.3932595
16	0xbdf0b93b	-0.1175408
17	0x3ead216d	0.33814564
18	0x3e0ef928	0.13962233
19	0x3ceedb0f	0.02915719
20	0xbddca743	-0.1077409
21	0x3e81b041	0.25329784
22	0x3c29697d	0.010340092
23	0x3e1fdc79	0.15611447
24	0xbd939167	-0.07205468
25	0xbe821d29	-0.25412872
26	0x3e877b90	0.26461458

fc1.bias f4 [3]
0	0x3efe1bda	0.49630624
1	0xbb3b61db	-0.0028592262
2	0xbec8172c	-0.3908018
